model.pth (torch, 25192 bytes, 7 tensors)

fc1.weight f4 [64, 46]
-0.015488207 -0.14671567 -0.04101222 -0.1433155 -0.14171949 0.101146534 -0.11715884 -0.1457719
0.045602247 -0.14193954 0.089099795 0.109031826 0.10795167 0.0724718 -0.14121473 0.05603957
-0.051162273 0.030449301 0.07392517 0.028271884 0.04533188 0.044447422 -0.071672335 -0.009746894
-0.07631925 -0.13884568 0.108614594 -0.004251972 -0.08798659 0.04629235 0.0977824 0.075615466
-0.11087954 -0.095299274 -0.022464745 0.12241253 -0.07306244 -0.0016062707 0.08969922 0.09436083
0.08402678 0.06713803 0.07097891 0.11960581 -0.027418137 0.0813182 -0.023031265 0.058286615
-0.010469559 -0.00022679227 0.07243865 0.074003376 0.023026222 -0.23078783 -0.0071702963 0.109672874
-0.22481261 -0.0686093 -0.073504336 0.21429887 -0.21403483 0.15774308 -0.14220348 0.016800737
0.16718055 -0.013156165 0.016079484 0.05055586 -0.093537 0.11113739 -0.058501933 0.038103532
-0.13875179 -0.0076594544 0.16407068 -0.12860759 -0.06320498 -0.034662094 0.012255015 0.037425723
-0.1844304 -0.05178503 -0.080424234 -0.083475575 -0.06987905 -0.08597009 -0.052966382 -0.094054185
-0.057565864 -0.02642136 -0.040228862 -0.03920469 0.07801966 0.039489828 0.05866592 -0.01812188
0.020720927 0.08216378 -0.11500012 0.22461754 0.0039060384 -0.14229496 0.13103689 0.21230361
0.020845093 -0.19068776 0.26161763 -0.16634177 0.034768112 -0.059396222 -0.06363803 0.03598199
-0.08021258 -0.12950628 0.055531565 0.08628103 0.14032647 -0.027282733 -0.050068814 -0.0275106
0.055915955 0.07725026 -0.09792734 0.126099 0.01400669 -0.24925207 0.15300244 -5.3702493e-05
0.10168202 -0.09286 0.11554131 0.10939566 0.006467816 0.08483317 0.0892037 0.045212023
0.059200767 -0.0732641 -0.15592611 0.07840933 -0.01127032 0.009716572 0.041407913 0.07805178
0.09310105 -0.0037665816 0.124422446 -0.00073342683 0.084111884 0.2252814 0.113104135 -0.14202955
0.04779022 0.065348335 0.16905291 -0.029246114 -0.12731859 0.11496247 0.107329406 -0.03256606
0.10707142 -0.08400383 0.0077454615 -0.138663 0.12446179 0.05021659 -0.13888544 -0.032667898
0.053097673 0.05173851 0.10206351 -0.13943419 0.09685291 0.04575147 0.073090635 -0.13247052
-0.05740002 0.06416408 -0.102843046 0.0190276 -0.13453965 -0.031045323 0.007924627 0.11398303
0.0071310205 0.12038032 0.14693381 -0.009141841 0.026978979 -0.054018356 -0.0279811 0.27384564
0.07962516 -0.22662365 0.010108215 0.03170378 0.17620017 -0.045443203 0.13848159 -0.060474493
-0.086885005 0.10091841 -0.0050364053 0.076247856 -0.09218885 -0.09983107 -0.03911609 -0.1460234
-0.044660684 -0.10164419 0.13713399 0.07691513 -0.008941154 0.034987226 0.025890863 0.033950597
-0.06656195 -0.12785709 0.04263765 -0.14834616 0.037864815 0.033525642 0.1590874 -0.018067632
-0.101651505 -0.0048540137 0.12101538 0.119748846 -0.10660452 0.058408298 0.027027654 -0.10382313
-0.10160142 0.103612274 0.13197519 -0.04938128 0.13653795 0.20953208 -0.008510646 -0.095122926
0.22908957 0.21695669 0.24178483 -0.17803885 0.28948462 -0.18933548 0.030676086 -0.07915161
0.11782636 -0.0012699481 0.015338358 -0.12891759 0.11843362 0.08674644 -0.045853645 -0.09391968
00000000: 40c2 7dbc a23c 16be 6efc 27bd 4cc1 12be
00000010: ea1e 11be ea25 cf3d f9f0 efbd 3b45 15be
00000020: 6cc9 3a3d 9958 11be f479 b63d 144c df3d
00000030: c415 dd3d 186c 943d 989a 10be c089 653d
00000040: 888f 51bd d070 f93c 1466 973d 709a e73c
00000050: ecad 393d 800e 363d f2c8 92bd 70b1 1fbc
00000060: 444d 9cbd 902d 0ebe 5471 de3d 2054 8bbb
00000070: 5032 b4bd 0c9d 3d3d 2442 c83d 48dc 9a3d
00000080: d014 e3bd 442c c3bd fc07 b8bc 6cb3 fa3d
00000090: c3a1 95bd 8089 d2ba 3ab4 b73d 4040 c13d
000000a0: 3c16 ac3d aa7f 893d 645d 913d e4f3 f43d
000000b0: 009c e0bc 288a a63d 10ac bcbc f2bd 6e3d
000000c0: 8388 2bbc 16cf 6db9 b75a 943d 158f 973d
000000d0: 7da1 bc3c a553 6cbe cef4 eabb 2c9c e03d
000000e0: 4735 66be 0883 8cbd 7189 96bd 2a71 5b3e
000000f0: f22b 5bbe 6787 213e ca9d 11be b3a1 893c
00000100: 6131 2b3e f58c 57bc 1fb9 833c a913 4f3d
00000110: 5490 bfbd 009c e33d b99f 6fbd 7312 1c3d
00000120: f314 0ebe 29fc fabb 2502 283e b5b1 03be
00000130: 9d71 81bd d7f9 0dbd 42c9 483c b74b 193d
00000140: 53db 3cbe 8a1c 54bd 76b5 a4bd 3ef5 aabd
00000150: bf1c 8fbd 1611 b0bd 47f3 58bd 7b9f c0bd
00000160: 2fca 6bbd 9c71 d8bc 05c7 24bd 1995 20bd
00000170: c6c8 9f3d 16c0 213d ad4b 703d 5674 94bc
00000180: efbe a93c 7c45 a83d 2f85 ebbd 2402 663e
00000190: 73fc 7f3b c5b5 11be 892e 063e 1e66 593e
000001a0: 54c3 aa3c a743 43be bff2 853e 7f55 2abe
000001b0: 0269 0e3d 7449 73bd a854 82bd da61 133d
000001c0: 7e46 a4bd 4b9d 04be 1175 633d 1cb4 b03d
000001d0: beb1 0f3e 0a80 dfbc f514 4dbd e95d e1bc
000001e0: 2108 653d 6235 9e3d 218e c8bd 1920 013e
000001f0: 517c 653c ef3b 7fbe acac 1c3e 9d3e 61b8
00000200: aa3e d03d 622d bebd eca0 ec3d d50a e03d
00000210: f9ef d33b 03bd ad3d 6eb0 b63d 3e30 393d
00000220: 817c 723d 7d0b 96bd 18ab 1fbe 1295 a03d
00000230: 26a7 38bc 4232 1f3c 589b 293d 9dd9 9f3d
00000240: c3ab be3d c1d8 76bb 32d1 fe3d 7143 40ba
00000250: da42 ac3d 2bb0 663e 24a3 e73d 3270 11be
00000260: adbf 433d 59d5 853d 351c 2d3e 8c95 efbc
00000270: ce5f 02be 7271 eb3d 85cf db3d fd63 05bd
00000280: 4348 db3d 330a acbd a4cd fd3b acfd 0dbe
00000290: d3e5 fe3d e9af 4d3d fc37 0ebe c6ce 05bd
000002a0: f27c 593d c3eb 533d ac06 d13d d6c7 0ebe
000002b0: d25a c63d e565 3b3d 8bb0 953d 5aa6 07be
000002c0: 491c 6bbd 7568 833d 609f d2bd c5df 9b3c
000002d0: c3c4 09be c352 febc 4bd6 013c ef6f e93d
000002e0: 56ab e93b f589 f63d d175 163e a9c7 15bc
000002f0: 0503 dd3c 5a42 5dbd 9f38 e5bc 7f35 8c3e
00000300: 8412 a33d 0810 68be ed9c 253c d3db 013d
00000310: d16d 343e a722 3abd 1ece 0d3e 1ab4 77bd
00000320: c4f0 b1bd 50ae ce3d 6e08 a5bb d627 9c3d
00000330: 82cd bcbd 3b74 ccbd 3138 20bd 2887 15be
00000340: 1fee 36bd d42a d0bd da6c 0c3e ae85 9d3d
00000350: eb7d 12bc c44e 0f3d 1319 d43c c80f 0b3d
00000360: a251 88bd f8ec 02be d1a4 2e3d 0ee8 17be
00000370: 2318 1b3d 2f52 093d cfe7 223e 9202 94bc
00000380: aa2e d0bd 6b0e 9fbb e9d6 f73d e23e f53d
00000390: 7853 dabd 8a3d 6f3d 1969 dd3c 39a1 d4bd
000003a0: 6814 d0bd ac32 d43d 8124 073e 0644 4abd
000003b0: 9bd0 0b3e 948f 563e 3d70 0bbc cfcf c2bd
000003c0: 7596 6a3e e529 5e3e 7196 773e d14f 36be
000003d0: 5437 943e 29e1 41be 6a4c fb3c 3d1a a2bd
000003e0: f24e f13d 6374 a6ba bc4d 7b3c f902 04be
000003f0: 538d f23d 1ea8 b13d 08d1 3bbd f658 c0bd

fc1.bias f4 [64]
-0.06961861 0.059900027 0.14686616 -0.12981251 -0.07929523 -0.061206326 0.0033106357 0.11276075
0.10055254 0.07410614 0.07849469 -0.1480788 0.010594311 0.08439998 0.06819379 0.10073939
-0.01960317 -0.06429175 0.13526 -0.0123432735 0.09992547 -0.11842543 -0.07358542 0.060076475
0.002145893 -0.09160583 0.05627422 0.11016767 -0.086759746 0.10621193 -0.13376158 -0.013261802
0.11308857 -0.10257789 0.12172353 -0.12466232 0.14863138 -0.043858226 0.08704871 -0.08234415
-0.006016344 -0.037480906 -0.10809568 0.01243442 -0.116680615 -0.09062341 -0.093180925 0.10828513
0.04775727 -0.1166289 0.1262535 0.11658585 -0.06463453 -0.016936898 -0.037689254 0.1454789
-0.0014386475 0.006385118 0.083211124 0.02584368 -0.015385315 0.06268093 -0.14994675 0.10660673
00000000: 3494 8ebd bb59 753d 1564 163e 92ed 04be
00000010: 8a65 a2bd 7cb3 7abd 40f7 583b 1cef e63d
00000020: 7dee cd3d f6c4 973d d3c1 a03d f8a1 17be
00000030: c393 2d3c e6d9 ac3d 30a9 8b3d 7450 ce3d
00000040: d496 a0bc 65ab 83bd 9981 0a3e 713b 4abc
00000050: baa5 cc3d 0889 f2bd f4b3 96bd c012 763d
00000060: 1ca2 0c3b d69b bbbd cc7f 663d 969f e13d
00000070: 18af b1bd a485 d93d ccf8 08be 0748 59bc
00000080: fb9a e73d 5b14 d2bd 304a f93d f54e ffbd
00000090: d332 183e afa4 33bd 9846 b23d 0da4 a8bd
000000a0: c024 c5bb 9485 19bd 4561 ddbd bdb9 4b3c
000000b0: 3ff6 eebd c498 b9bd a4d5 bebd 98c4 dd3d
000000c0: 219d 433d 22db eebd 9948 013e 90c4 ee3d
000000d0: 1c5f 84bd 40bf 8abc 0c60 1abd 6cf8 143e
000000e0: 0091 bcba 403a d13b 986a aa3d 20b6 d33c
000000f0: b012 7cbc dc5e 803d a48b 19be a154 da3d

fc2.weight f4 [32, 64]
-0.093994096 0.14375465 0.0011371159 -0.030692695 -0.11527298 0.06676425 0.006333751 0.086966306
0.075001895 0.09847094 0.03456073 -0.031137928 -0.10522782 -0.031251177 0.06450996 -0.028848916
-0.14408152 0.05452797 0.01855622 0.105900295 -0.11706497 -0.03216742 -0.17246743 -0.0145217925
-0.0054262346 -0.038534205 -0.06650305 -0.058100466 -0.11802285 -0.118487656 0.029883474 -0.03231035
-0.19987485 0.011388227 0.1793387 0.09891315 -0.06278106 0.07226442 0.051186983 0.07722331
-0.001689747 0.11855197 -0.09366387 -0.17591223 0.089334205 -0.10763315 0.10662986 0.09437516
0.06837866 -0.09831663 0.0025644726 -0.0171127 -0.018984348 0.08083354 -0.039864913 0.07462357
-0.038082093 -0.035061404 -0.12006104 0.038138375 -0.012610972 -0.06800017 -0.17688093 -0.21670781
-0.088431016 -0.024511756 0.10630655 0.10105838 0.011120622 -0.1075913 0.058385625 0.0015960336
0.09898749 -0.07713537 -0.1334071 0.10513987 0.04898931 -0.009729877 -0.022389099 0.09664263
0.032374974 0.066868834 0.10028379 0.0028047687 0.03136085 0.017162189 0.0024444875 -0.003656869
0.029698972 0.0037891031 0.111029 0.07392822 -0.087763675 -0.013118118 -0.032187358 0.111237586
0.02240023 -0.07612677 -0.13042429 -0.12143486 0.03454252 -0.12652896 0.10106574 -0.049677424
-0.027964085 -0.05483277 0.01622084 0.09717676 -0.003084585 -0.08177022 0.06324588 0.0909968
-0.116562374 0.06481138 0.05165677 -0.073240414 0.021997496 0.0818679 0.07203214 -0.025571493
-0.047925606 0.0136137605 -0.079986095 0.09710091 -0.035276994 0.11922525 -0.1319932 0.07603054
-0.101557836 0.06444495 -0.10741548 -0.07365811 -0.08007102 0.068337776 0.084888205 0.022407606
-0.108573444 0.088858455 0.09712584 0.07648978 0.11927329 0.11619362 -0.0018364638 -0.05929154
-0.08257699 0.04355135 -0.011090949 0.05217558 -0.11647576 0.038897574 -0.08227831 -0.024631858
-0.068428874 0.016436212 0.08964744 -0.04704978 0.025969189 -0.019357651 0.0036411583 0.09538822
0.036664713 -0.042336732 0.04816285 -0.09204417 -0.07259301 0.0013186544 0.0020270497 -0.009308889
0.046901003 -0.029192418 0.05566977 0.009241543 0.09262723 -0.01768811 0.0679775 -0.08085464
-0.080980375 -0.07692148 0.07556921 0.062309355 -0.0073871315 0.08288883 -0.07967609 0.026761178
0.01104185 -0.0014715642 0.038912535 0.11530712 0.1028375 -0.084251106 0.044191662 0.10815275
-0.0020077825 -0.10102942 0.07397253 -0.10324998 0.09197996 0.047632795 0.09687124 0.09670991
-0.08851666 -0.04963398 -0.045107067 0.058571115 0.04626 0.062057406 0.07149468 0.065310776
-0.00930013 0.11925292 -0.09233058 -0.07680748 -0.051180556 -0.08065963 0.114039235 -0.11564596
0.0738056 -0.026054144 -0.020904154 0.0601077 0.09759318 -0.12042351 -0.024243414 0.026962087
-0.012046235 0.12147601 -0.04227731 0.028306663 0.10238237 -0.035039894 -0.010880455 -0.047878977
0.11428486 -0.054344192 -0.054667655 -0.04837781 -0.106924415 -0.06250863 0.0100062005 -0.008559793
-0.11007572 0.042443473 0.05363585 0.11650123 0.08407289 0.12496939 -0.10381372 0.088748924
0.026978761 0.02611266 -0.12248804 -0.017564297 0.049375728 0.06152135 -0.04222597 -0.0065869335
00000000: fa7f c0bd 6b34 133e 470b 953a 3f6f fbbc
00000010: 3d14 ecbd b2bb 883d 5b8b cf3b 641b b23d
00000020: 989a 993d 22ab c93d 8d8f 0d3d f814 ffbc
00000030: af81 d7bd 3c01 00bd cc1d 843d 9054 ecbc
00000040: 1b8a 13be b858 5f3d 3703 983c 41e2 d83d
00000050: c2bf efbd fcc1 03bd 4d9b 30be d0ec 6dbc
00000060: 8ece b1bb 0bd6 1dbd c032 88bd c1fa 6dbd
00000070: f7b5 f1bd a8a9 f2bd 30ce f43c dc57 04bd
00000080: feab 4cbe b095 3a3c 90a4 373e fa92 ca3d
00000090: 5b93 80bd 5eff 933d 71a9 513d 4127 9e3d
000000a0: 807a ddba 60cb f23d d8d2 bfbd 5622 34be
000000b0: daf4 b63d c56e dcbd c260 da3d c447 c13d
000000c0: 1c0a 8c3d 3b5a c9bd b610 283b ef2f 8cbc
000000d0: 1085 9bbc 0e8c a53d 6449 23bd 3ed4 983d
000000e0: f8fb 1bbd 8c9c 0fbd 90e2 f5bd fc36 1c3d
000000f0: 409e 4ebc ac43 8bbd 4620 35be a7e8 5dbe
00000100: 521b b5bd e1cc c8bc 40b7 d93d b2f7 ce3d
00000110: 4533 363c d458 dcbd c425 6f3d 0032 d13a
00000120: f4b9 ca3d 26f9 9dbd df9b 08be 9253 d73d
00000130: 04a9 483d 106a 1fbc 5869 b7bc 92ec c53d
00000140: 9f9b 043d 87f2 883d 9661 cd3d 36d0 373b
00000150: 3c74 003d b897 8c3c b233 203b 15a8 6fbb
00000160: 424b f33c 9a52 783b 2c63 e33d ae67 973d
00000170: 71bd b3bd 60ed 56bc e4d6 03bd 88d0 e33d
00000180: b080 b73c 5ae8 9bbd f28d 05be d7b2 f8bd
00000190: 757c 0d3d cf90 01be 8efb ce3d 8e7a 4bbd
000001a0: f014 e5bc 5498 60bd 91e1 843c 9c04 c73d
000001b0: c026 4abb 2577 a7bd 0e87 813d 885c ba3d
000001c0: 41b8 eebd d4bb 843d 0d96 533d 12ff 95bd
000001d0: 1834 b43c 5caa a73d 9685 933d 4f7b d1bc
000001e0: a44d 44bd 400c 5f3c c0cf a3bd d8dc c63d
000001f0: 9c7e 10bd 5e2c f43d 3a29 07be e6b5 9b3d
00000200: 8efd cfbd b7fb 833d a6fc dbbd 10da 96bd
00000210: 46fc a3bd adf4 8b3d ded9 ad3d 2890 b73c
00000220: c15b debd 6cfb b53d eae9 c63d aca6 9c3d
00000230: 8e45 f43d ecf6 ed3d 80b5 f0ba b0db 72bd
00000240: 201e a9bd e662 323d d0b6 35bc 10b6 553d
00000250: d88a eebd 1053 1f3d 8881 a8bd c0c8 c9bc
00000260: 7024 8cbd 3ca5 863c 1499 b73d 45b7 40bd
00000270: 56bd d43c f093 9ebc 80a0 6e3b e65a c33d
00000280: bd2d 163d 4869 2dbd 6946 453d a781 bcbd
00000290: a5ab 94bd b3d6 ac3a 40d8 043b 4f84 18bc
000002a0: 441b 403d f024 efbc fc05 643d d769 173c
000002b0: 58b3 bd3d a8e6 90bc ca37 8b3d 1e97 a5bd
000002c0: 0ad9 a5bd 0289 9dbd 08c4 9a3d 1838 7f3d
000002d0: c00f f2bb 9ec1 a93d 382d a3bd 423a db3c
000002e0: e0e8 343c 80e1 c0ba c062 1f3d 2426 ec3d
000002f0: 789c d23d d88b acbd 5102 353d 307f dd3d
00000300: 0095 03bb 83e8 cebd e97e 973d ba74 d3bd
00000310: fd5f bc3d 9b1a 433d 6e64 c63d d80f c63d
00000320: 3948 b5bd 004d 4bbd 30c2 38bd 44e8 6f3d
00000330: 207b 3d3d e82f 7e3d ce6b 923d a8c1 853d
00000340: 935f 18bc e03a f43d d117 bdbd 3d4d 9dbd
00000350: b4a2 51bd e030 a5bd 678d e93d cad7 ecbd
00000360: 6427 973d 806f d5bc 303f abbc 7e33 763d
00000370: efde c73d 9aa0 f6bd 209a c6bc 98df dc3c
00000380: 925d 45bc 6ac8 f83d f92a 2dbd 60e3 e73c
00000390: d9ad d13d fe85 0fbd f043 32bc bf1c 44bd
000003a0: 2e0e ea3d 0498 5ebd 31eb 5fbd cf27 46bd
000003b0: 30fb dabd 8604 80bd 0cf1 233c 603e 0cbc
000003c0: 616f e1bd 35d9 2d3d 44b1 5b3d 3298 ee3d
000003d0: 682e ac3d f4ef ff3d 4a9c d4bd ffc1 b53d
000003e0: 9002 dd3c 38ea d53c 02db fabd 00e3 8fbc
000003f0: 343e 4a3d d0fd 7b3d 24f5 2cbd 34d7 d7bb

fc2.bias f4 [32]
-0.0987289 -0.019645708 -0.103303984 0.08161476 -0.102249764 0.10623335 0.07571315 0.0058721597
-0.081841804 -0.060998484 -0.09852594 0.12101649 0.052926414 -0.07002065 0.104039945 -0.0899138
-0.04337731 -0.08303389 0.06592784 -0.10881977 -0.071573585 -0.10195734 -0.06054487 -0.08188031
-0.008680207 -0.021490483 -0.10783702 -0.04848042 0.11212534 0.1181172 -0.0606009 -0.06884074
00000000: 6132 cabd 09f0 a0bc 0a91 d3bd a425 a73d
00000010: 5368 d1bd df90 d93d 7f0f 9b3d 3f6b c03b
00000020: ad9c a7bd 8cd9 79bd f8c7 c9bd 7ed7 f73d
00000030: 5ec9 583d fd66 8fbd e512 d53d ba24 b8bd
00000040: 68ac 31bd ac0d aabd 2d05 873d e6dc debd
00000050: 2c95 92bd 03cf d0bd e6fd 77bd ddb0 a7bd
00000060: 6d37 0ebc cf0c b0bc a8d9 dcbd 6893 46bd
00000070: f8a1 e53d 6ee7 f13d a638 78bd 60fc 8cbd

fc3.weight f4 [16, 32]
0.24367814 -0.039701678 -0.025365802 0.1369571 -0.12878092 0.13575447 -0.054175023 -0.01546351
-0.16218083 -0.02244775 -0.033224776 0.14226405 -0.040746383 0.26483533 0.11858496 0.20632854
0.20518653 0.12893489 -0.16374165 0.11396567 -0.08276692 0.19259544 -0.076804616 -0.011936155
-0.04111679 -0.0652932 -0.0454554 0.23123465 0.07383695 -0.15793577 0.08036699 -0.030299807
0.17105947 0.0673809 0.14173338 -0.12408131 -0.0005736951 0.22305298 -0.13645984 0.13008177
-0.25841412 -0.14506638 -0.105900995 0.24901256 0.068465024 0.28591117 0.07287488 -0.03162056
-0.00022454892 -0.0013747424 -0.13147545 0.2547567 0.12890165 0.19108084 -0.031909186 0.27206966
-0.17177854 -0.22059421 0.09380481 0.2374302 0.07987758 -0.04827474 0.005170389 0.2106408
0.21814847 -0.05471844 -0.059124667 -0.16573888 0.0816124 0.14816606 0.057415504 0.13495725
0.0014604559 0.04149814 -0.102652356 -0.045926914 0.1980834 0.28303975 0.19165325 0.17874338
0.19202779 0.21568272 0.094282426 0.1567789 -0.13879572 0.14506452 0.19107382 -0.05459448
-0.023437377 -0.14733355 0.078066826 0.06463555 -0.118662626 0.12560238 -0.070030436 0.19277017
-0.0354012 -0.15461701 -0.049386 -0.00025363325 0.10485223 0.07113913 0.18038747 0.12585281
0.007504297 0.17503329 0.16245557 -0.0555522 0.09980473 -0.27160233 0.023662617 -0.14985904
0.009114834 -0.056477603 -0.06010424 0.08965988 -0.013735069 -0.06933555 0.14992313 -0.13096902
0.13851687 0.19398047 0.0027086597 -0.099062756 0.14023188 -0.119665734 -0.06346466 -0.21718742
-0.094476074 -0.10598671 0.10756363 -0.16054812 -0.0020768242 -0.13808367 -0.1411198 0.11304694
0.23363616 0.15324442 0.037045836 -0.02033593 0.028116459 -0.2328859 -0.06933121 -0.24036644
-0.16544954 0.053966716 0.19290672 0.10409402 -0.03837037 -0.24764788 0.011520501 0.12037022
0.12190483 -0.010019314 0.1309035 0.05524047 0.17957094 -0.055447005 -0.14769831 -0.2728404
-0.054768 -0.02979387 -0.08785596 0.015775964 0.010613554 -0.09228948 -0.051593836 -0.16481821
-0.018172212 -0.02818115 -0.10132043 -0.2083035 0.12778191 -0.1361039 0.121885166 0.10467818
0.15041354 -0.00937163 -0.18566269 0.009252542 -0.12391186 0.08937098 0.0055371933 -0.059474196
0.062579 -0.025149161 0.12695204 0.038302485 -0.097060874 0.035448298 -0.13190867 0.062926576
-0.090765305 0.13264008 0.12175189 0.013118327 -0.13429028 -0.14343643 0.14684083 0.13360973
0.14452375 0.119506195 -0.17333244 0.020693917 -0.1283216 0.0052727014 -0.07730286 -0.07823768
-0.17540608 0.11949615 0.07354749 0.009841472 -0.13980761 0.09438759 -0.054418508 0.001878676
-0.06597711 -0.14794947 0.0896406 -0.031000936 0.028572133 -0.04531619 -0.15297534 -0.0069295093
-0.00088904664 -0.093166746 0.023241252 0.13587709 0.102758795 0.011136562 -0.0435991 -0.08143379
-0.16695331 0.03719628 0.026546821 -0.15756978 -0.09072693 -0.027863463 0.121158876 -0.16357759
-0.17069764 -0.14092264 -0.07229843 -0.059340797 0.096235774 -0.030811027 -0.008230717 0.14530222
-0.06988505 -0.1000695 -0.0016494727 0.024373753 0.06802992 0.1179889 -0.027457075 0.09165097
00000000: c386 793e 3a9e 22bd f1cb cfbc 7b3e 0c3e
00000010: 25df 03be 3803 0b3e a1e6 5dbd a95a 7dbc
00000020: bb12 26be 58e4 b7bc b416 08bd abad 113e
00000030: aee5 26bd 7f98 873e acdc f23d ca47 533e
00000040: 6b1c 523e 8207 043e e4ab 27be d566 e93d
00000050: b481 a9bd bd37 453e bd4b 9dbd dd8f 43bc
00000060: 146a 28bd 71b8 85bd 712f 3abd c7c8 6c3e
00000070: d437 973d eab9 21be 7397 a43d 4d37 f8bc
00000080: 372a 2f3e fffe 893d 8e22 113e 581e febd
00000090: 0764 16ba 0068 643e 21bc 0bbe 2834 053e
000000a0: db4e 84be 488c 14be 9fe2 d8bd 26fd 7e3e
000000b0: 6437 8c3d f362 923e 6d3f 953d 8f84 01bd
000000c0: e474 6bb9 b330 b4ba 80a1 06be 786f 823e
000000d0: cbfe 033e b2aa 433e 35b3 02bd b74c 8b3e
000000e0: b7e6 2fbe 73e3 61be bc1c c03d e720 733e
000000f0: db96 a33d bcbb 45bd 5e6c a93b 39b2 573e
00000100: 5062 5f3e 7120 60bd b52c 72bd 74b7 29be
00000110: 6724 a73d d8b8 173e 852c 6b3d 3c32 0a3e
00000120: c56c bf3a f4f9 293d 663b d2bd dc1d 3cbd
00000130: 60d6 4a3e 96ea 903e c040 443e 8108 373e
00000140: efa2 443e eedb 5c3e 2517 c13d a68a 203e
00000150: 7720 0ebe cb8b 143e dba8 433e 769e 5fbd
00000160: beff bfbc 9bde 16be 80e1 9f3d a55f 843d
00000170: 6405 f3bd e99d 003e 1e6c 8fbd 8b65 453e
00000180: d900 11bd ec53 1ebe f948 4abd 14fa 84b9
00000190: c4bc d63d 64b1 913d 7eb7 383e 8fdf 003e
000001a0: 9be6 f53b ed3b 333e c15a 263e b48a 63bd
000001b0: 6c66 cc3d 760f 8bbe 1bd8 c13c a674 19be
000001c0: 6256 153c 0f55 67bd dd2f 76bd 999f b73d
000001d0: 0e09 61bc ccff 8dbd 7385 193e be1c 06be
000001e0: 5ed7 0d3e d1a2 463e c583 313b 6ae1 cabd
000001f0: f298 0f3e 4f13 f5bd c2f9 81bd 6166 5ebe
00000200: ac7c c1bd 8f0f d9bd 524a dc3d ba66 24be
00000210: 541b 08bb ce65 0dbe b581 10be 2785 e73d
00000220: 513e 6f3e 1bec 1c3e 60bd 173d 8997 a6bc
00000230: 7d54 e63c a479 6ebe 85fd 8dbd 9f22 76be
00000240: 9b6b 29be 340c 5d3d 5789 453e 3f2f d53d
00000250: 402a 1dbd 6897 7dbe 7cc0 3c3c a984 f63d
00000260: 3da9 f93d 0c28 24bc 910b 063e d543 623d
00000270: 72e1 373e 661c 63bd 3a3e 17be bdb1 8bbe
00000280: 6954 60bd 4612 f4bc d3ed b3bd 983c 813c
00000290: 79e4 2d3c 4402 bdbd 0f54 53bd 1bc6 28be
000002a0: e4dd 94bc 28dc e6bc 1681 cfbd 834d 55be
000002b0: 43d9 023e d25e 0bbe ee9e f93d 8361 d63d
000002c0: 0206 1a3e 778b 19bc 5c1e 3ebe f997 173c
000002d0: 80c5 fdbd 2208 b73d 5871 b53b 379b 73bd
000002e0: 6b29 803d 9d05 cebc b7ff 013e 11e3 1c3d
000002f0: dac7 c6bd 3c32 113d 1113 07be a6df 803d
00000300: 29e3 b9bd cdd2 073e 0e59 f93d 40ee 563c
00000310: 6483 09be 00e1 12be 715d 163e fdd0 083e
00000320: 09fe 133e aabf f43d 0f7e 31be 4a86 a93c
00000330: bd66 03be a0c6 ac3b f650 9ebd 143b a0bd
00000340: a79d 33be 66ba f43d 11a0 963d 203e 213c
00000350: ba29 0fbe 484e c13d f1e5 5ebd e83d f63a
00000360: 021f 87bd 1180 17be 7e95 b73d adf5 fdbc
00000370: 1b10 ea3c 789d 39bd 91a5 1cbe f010 e3bb
00000380: e90e 69ba 35ce bebd 7064 be3c 5d23 0b3e
00000390: 3473 d23d 2076 363c f894 32bd c2c6 a6bd
000003a0: cff5 2abe 205b 183d b878 d93c f959 21be
000003b0: 0acf b9bd eb41 e4bc 2522 f83d e280 27be
000003c0: 5dcb 2ebe 064e 10be 3311 94bd 560f 73bd
000003d0: 4317 c53d 6867 fcbc 21da 06bc 1bca 143e
000003e0: e51f 8fbd 3df1 ccbd 1f33 d8ba 77ab c73c
000003f0: 4553 8b3d 2aa4 f13d a9ed e0bc 81b3 bb3d

fc3.bias f4 [16]
0.06584096 -0.117869675 0.1088502 -0.015754743 -0.14943719 0.113576405 -0.18579048 0.13390385
0.04480201 0.10488495 0.0823485 -0.1632742 0.036265492 0.06708196 0.11957314 -0.04367837
00000000: a0d7 863d a865 f1bd dbec de3d 1710 81bc
00000010: 1006 19be bf9a e83d dc3f 3ebe 171e 093e
00000020: 5082 373d eccd d63d 55a6 a83d 5a31 27be
00000030: 208b 143d 4462 893d c3e2 f43d 17e8 32bd

fc4.weight f4 [1, 16]
-0.21524177 -0.39479813 -0.24118227 0.14349127 0.28529742 0.033410687 -0.058491033 0.14311393
0.05426028 0.34670457 0.26853174 0.23243783 0.19948396 0.32873514 0.2347953 0.0032388326
00000000: 5768 5cbe fb22 cabe 7cf8 76be 60ef 123e
00000010: 8112 923e a5d9 083d 4b94 6fbd 758c 123e
00000020: 0740 5e3d 4383 b13e fe7c 893e 2f04 6e3e
00000030: 8645 4c3e f94f a83e 2e6e 703e 9842 543b
